Fold 0
Loading data
Number of tasks = 1
Splitting data with seed 0
Total size = 335 | train size = 268 | val size = 67 | test size = 84
Fitting scaler
Building model 0
MoleculeModel(
  (encoder): MPN(
    (encoder): MPNEncoder(
      (dropout_layer): Dropout(p=0.0, inplace=False)
      (act_func): ReLU()
      (W_i_atom): Linear(in_features=133, out_features=300, bias=False)
      (W_i_bond): Linear(in_features=147, out_features=300, bias=False)
      (W_h_atom): Linear(in_features=447, out_features=300, bias=False)
      (W_h_0): Linear(in_features=300, out_features=300, bias=False)
      (W_h_1): Linear(in_features=300, out_features=300, bias=False)
      (W_o): Linear(in_features=600, out_features=300, bias=True)
      (gru): BatchGRU(
        (gru): GRU(300, 300, batch_first=True, bidirectional=True)
      )
      (lr): Linear(in_features=900, out_features=300, bias=False)
    )
  )
  (ffn): Sequential(
    (0): Dropout(p=0.0, inplace=False)
    (1): Linear(in_features=300, out_features=300, bias=True)
    (2): ReLU()
    (3): Dropout(p=0.0, inplace=False)
    (4): Linear(in_features=300, out_features=1, bias=True)
  )
)
Number of parameters = 2,022,901
Moving model to cuda
Epoch 0
Validation r2 = 0.004854
Epoch 1
Validation r2 = -0.030337
Epoch 2
Validation r2 = 0.005798
Epoch 3
Validation r2 = -0.200106
Epoch 4
Validation r2 = -0.311955
Epoch 5
Validation r2 = -0.207426
Epoch 6
Validation r2 = 0.022565
Epoch 7
Validation r2 = 0.022973
Epoch 8
Validation r2 = 0.023614
…
Validation r2 = 0.528313
Epoch 92
Validation r2 = 0.540126
Epoch 93
Validation r2 = 0.522313
Epoch 94
Validation r2 = 0.555273
Epoch 95
Validation r2 = 0.534451
Epoch 96
Validation r2 = 0.545931
Epoch 97
Validation r2 = 0.542559
Epoch 98
Validation r2 = 0.534700
Epoch 99
Validation r2 = 0.535948
Model 1 best validation r2 = 0.619731 on epoch 51
Moving model to cuda
Model 1 test mae = 0.489152
Model 1 test mse = 0.386034
Model 1 test r2 = 0.571388
Building model 2
MoleculeModel(
  (encoder): MPN(
    (encoder): MPNEncoder(
      (dropout_layer): Dropout(p=0.0, inplace=False)
      (act_func): ReLU()
      (W_i_atom): Linear(in_features=133, out_features=300, bias=False)
      (W_i_bond): Linear(in_features=147, out_features=300, bias=False)
      (W_h_atom): Linear(in_features=447, out_features=300, bias=False)
      (W_h_0): Linear(in_features=300, out_features=300, bias=False)
      (W_h_1): Linear(in_features=300, out_features=300, bias=False)
      (W_o): Linear(in_features=600, out_features=300, bias=True)
      (gru): BatchGRU(
        (gru): GRU(300, 300, batch_first=True, bidirectional=True)
      )
      (lr): Linear(in_features=900, out_features=300, bias=False)
    )
  )
  (ffn): Sequential(
    (0): Dropout(p=0.0, inplace=False)
    (1): Linear(in_features=300, out_features=300, bias=True)
    (2): ReLU()
    (3): Dropout(p=0.0, inplace=False)
    (4): Linear(in_features=300, out_features=1, bias=True)
  )
)
Number of parameters = 2,022,901
Moving model to cuda
Fold 0
Loading data
Number of tasks = 1
Splitting data with seed 0
Total size = 335 | train size = 268 | val size = 67 | test size = 84
Fitting scaler
Building model 0
MoleculeModel(
  (encoder): MPN(
    (encoder): MPNEncoder(
      (dropout_layer): Dropout(p=0.0, inplace=False)
      (act_func): ReLU()
      (W_i_atom): Linear(in_features=133, out_features=300, bias=False)
      (W_i_bond): Linear(in_features=147, out_features=300, bias=False)
      (W_h_atom): Linear(in_features=447, out_features=300, bias=False)
      (W_h_0): Linear(in_features=300, out_features=300, bias=False)
      (W_h_1): Linear(in_features=300, out_features=300, bias=False)
      (W_o): Linear(in_features=600, out_features=300, bias=True)
      (gru): BatchGRU(
        (gru): GRU(300, 300, batch_first=True, bidirectional=True)
      )
      (lr): Linear(in_features=900, out_features=300, bias=False)
    )
  )
  (ffn): Sequential(
    (0): Dropout(p=0.0, inplace=False)
    (1): Linear(in_features=300, out_features=300, bias=True)
    (2): ReLU()
    (3): Dropout(p=0.0, inplace=False)
    (4): Linear(in_features=300, out_features=1, bias=True)
  )
)
Number of parameters = 2,022,901
Moving model to cuda
Epoch 0
Validation r2 = -0.005197
Epoch 1
Validation r2 = 0.003612
Epoch 2
Validation r2 = -0.028766
Epoch 3
Validation r2 = -0.028061
Epoch 4
Validation r2 = -0.001709
Epoch 5
Validation r2 = 0.009719
Epoch 6
Validation r2 = -0.000235
Epoch 7
Validation r2 = 0.038364
Epoch 8
Validation r2 = 0.049554
…
